model/model.pth (torch, 17216 bytes, 4 tensors)

linear1.weight f4 [256, 11]
0	0xbe98d7eb	-0.29852232
1	0x3def386f	0.11680686
2	0x3e4a07d0	0.19729543
3	0xbd3bd373	-0.04585595
4	0xbdfa0dbd	-0.122096516
5	0x3e271e59	0.1632017
6	0xbde74b75	-0.11293689
7	0x3e1ae104	0.15124899
8	0x3e7392ff	0.23786543
9	0x3dfafbd1	0.122550614
10	0x3e7cbf03	0.2468224
11	0xbe5ca0e4	-0.2154575
12	0x3e2380dd	0.15967126
13	0xbe7b090f	-0.24515174
14	0x3e2cb33e	0.1686525
15	0x3d5a3493	0.053272795
16	0xbd151174	-0.036393598
17	0xbe8503f6	-0.25979584
18	0x3e2eb4fd	0.17061229
19	0x3d7b6a02	0.061380394
20	0x3e5ec3aa	0.21754327
21	0x3e5bee28	0.21477568
22	0xbdae32b2	-0.08505763
23	0x3e0dfb7e	0.13865468
24	0xbd044aa0	-0.03229773
25	0xbdbe6fd8	-0.09298676
26	0xbe1796d4	-0.1480363
27	0x3df19d7c	0.11797616
28	0x3d757e50	0.059934914
29	0xbe860fb4	-0.26183856
30	0xbe382feb	-0.17987029
31	0xbe16d696	-0.14730296
32	0xbd7b300c	-0.061325118
33	0xbe8de089	-0.2771037
34	0xbe8a10ca	-0.26965934
35	0x3d8ceb9e	0.06880878
36	0x3b9363a7	0.0044979635
37	0xbe036865	-0.12832792
38	0x3d366ae6	0.04453554
39	0xbe7c4c2e	-0.24638435
40	0xbd61fb5b	-0.055171352
41	0x3e9ca290	0.30592775
42	0x3e68383f	0.22677706
43	0x3e6ce6e2	0.2313495
44	0x3e9f8038	0.3115251
45	0xbe98a55c	-0.2981366
46	0xbe172f69	-0.1476418
47	0xbe8e143f	-0.27749822
48	0x3e998776	0.2998616
49	0x3e3ad3b3	0.1824482
50	0xbe704ea4	-0.23467499
51	0xbe106f67	-0.14104997
52	0xbe8dd95a	-0.2770489
53	0xbe979f55	-0.29613748
54	0xbde1f0e9	-0.11032278
55	0xbe6df988	-0.2323972
56	0xbe5faa57	-0.21842323
57	0xbe3c66ce	-0.18398592
58	0xbe482ee7	-0.19549142
59	0xbe2eb207	-0.170601
60	0x3d8f6f6e	0.070036754
61	0x3e99f608	0.3007052
62	0x3e24c389	0.16090216
63	0xbde5b40c	-0.11215982
64	0xbd86d7b5	-0.065841116
65	0x3e9280b5	0.2861382
66	0xbbc325c7	-0.005955431
67	0xbcdb0584	-0.026736028
68	0x3e776279	0.24158658
69	0x3e5a7ac6	0.21335897
70	0x3c61f64d	0.013791633
71	0xbe928042	-0.28613478
72	0x3e6fa34c	0.23402137
73	0x3e8bdf37	0.27318737
74	0x3d655263	0.055986773
75	0x3e8afa29	0.27143982
76	0x3bf44cba	0.0074554356
77	0x3e88c0cb	0.2670959
78	0x3cd414dd	0.025888855
79	0x3e74847a	0.23878661
80	0x3e3372c5	0.1752425
81	0xbe1e2b66	-0.15446243
82	0x3dee8f47	0.11648422
83	0x3dc63c87	0.096795134
84	0xbea2964e	-0.31755298
85	0xbe82acda	-0.255225
86	0x3e493999	0.19650878
87	0x3e635e77	0.22204004
88	0xbd5d3338	-0.054003924
89	0x3e7d4788	0.24734318
90	0x3e984c5c	0.29745758
91	0xbe99f12c	-0.30066812
92	0xbe8cf7e7	-0.27532884
93	0xbe1082c4	-0.14112383
94	0xbe85ff6d	-0.26171437
95	0xbe5086b2	-0.20363882
96	0xbe468cdc	-0.19389671
97	0x3e72254c	0.2364704
98	0xbdbcf5c8	-0.092265666
99	0xbdeaa92c	-0.11458048
100	0xbe06ff6e	-0.13183376
101	0xbe124581	-0.14284326
102	0x3df59762	0.119917646
103	0x3ccbbd6c	0.024870597
104	0xbe9513fb	-0.29116806
105	0xbe7733a9	-0.241408
106	0x3e71c94e	0.23611948
107	0xbdb0f997	-0.086413555
108	0x3cd99868	0.02656193
109	0x3db6e0ec	0.08929619
110	0x3cd336db	0.025782993
111	0x3e9220b6	0.2854058
112	0x3c3bf732	0.01147251
113	0xbe1ca149	-0.152959
114	0xbe6562cc	-0.2240097
115	0xbe12856b	-0.14308707
116	0xbe7fb1f7	-0.24970232
117	0xbd1e4211	-0.038637225
118	0x3e928863	0.2861968
119	0x3daddc16	0.08489244
120	0xbe4edc5f	-0.20201252
121	0x3df2ebb7	0.11861365
122	0xbdd811c3	-0.10550263
123	0xbd81e988	-0.06343371
124	0xbdf489af	-0.119403236
125	0x3e8bb182	0.27283865
126	0x3e4adedd	0.19811578
127	0x3ddc11e7	0.10745602
128	0xbe9ccb66	-0.3062393
129	0x3e313137	0.1730393
130	0x3cf91537	0.030405624
131	0x3c323f35	0.010879328
132	0xbd5c7e9d	-0.053831685
133	0xbeb5ef8e	-0.35534328
134	0x3e97cdf8	0.2964933
135	0x3e282a4f	0.1642239
136	0x3d884e18	0.0665552
137	0x3e0a02e2	0.13477662
138	0xbd92aaa7	-0.071614556
139	0xbe8da0ae	-0.2766165
140	0x3daa00a5	0.08300904
141	0x3c2714c2	0.01019782
142	0x3e9600a4	0.29297364
143	0xbe2b61b0	-0.16736484
144	0xbd841e94	-0.06451145
145	0x3dd1b352	0.10239281
146	0x3d08b085	0.033371467
147	0x3e795fb7	0.24352919
148	0x3d7dacf6	0.061932527
149	0xbe4b367f	-0.19845007
150	0xbde34b0a	-0.11098297
151	0x3e70d4ae	0.23518631
152	0xbe8eb428	-0.27871823
153	0xbe267506	-0.16255578
154	0x3ddcd1f2	0.107822314
155	0x3d90a3ad	0.07062469
156	0x3e094714	0.1340602
157	0xbe89bdc7	-0.269026
158	0xbd51c274	-0.051210836
159	0x3e771ec2	0.24132827
160	0x3dbc1fb4	0.091857344
161	0x3ea784b5	0.32718435
162	0xbe4fe494	-0.2030204
163	0x3a910019	0.0011062651
164	0xbc3746a9	-0.01118628
165	0x3e72c053	0.23706178
166	0x3e39cc94	0.18144447
167	0xbdab1dee	-0.08355318
168	0xbcf496c4	-0.029857047
169	0xbe1a818e	-0.15088484
170	0x3d76d2f8	0.06025979
171	0xbe412fbd	-0.18865867
172	0x3e58e08c	0.21179408
173	0x3e6a1687	0.22860156
174	0x3dabaf25	0.083830155
175	0x3e7fba36	0.24973378
176	0xbe84be7d	-0.2592658
177	0xbdcfb0da	-0.10141154
178	0x3d9dce80	0.077054024
179	0xbe995425	-0.2994701
180	0x3d6775db	0.05650888
181	0x3e2f1b19	0.1710018
182	0x3e4a808f	0.19775604
183	0x3e8f46d9	0.2798374
184	0x3cca575f	0.024699865
185	0x3e9ef43e	0.31045717
186	0xbe426628	-0.18984282
187	0x3e6e545a	0.23274365
188	0xbe5a7f11	-0.21337534
189	0xbe76acb9	-0.24089326
190	0x3e893983	0.2680169
191	0xbe695304	-0.22785574
192	0x3e24f51c	0.16109127
193	0xbe86927b	-0.2628363
194	0x3df88736	0.121351644
195	0x3c1db65d	0.009625998
196	0xbc9e9403	-0.019357687
197	0x3d74aec2	0.059736975
198	0xbe720812	-0.23635891
199	0xbced8980	-0.02899623
200	0x3e349e10	0.17638421
201	0xbe281eed	-0.16418047
202	0xbe971cc1	-0.29514125
203	0xbe8e5cff	-0.27805325
204	0xbdd29d56	-0.10283916
205	0xbe482527	-0.19545422
206	0xbbe059c0	-0.0068466365
207	0xbd3e3a78	-0.04644248
208	0xbdf2e3c8	-0.11859852
209	0xbced70d0	-0.028984457
210	0x3e8d3bc3	0.27584657
211	0x3e65a8a7	0.22427617
212	0xbd7d416f	-0.06182998
213	0x3e3e6926	0.18594798
214	0xbe548706	-0.20754632
215	0x3c76a8cb	0.015054892
216	0xbe34fa0f	-0.17673515
217	0xbe85dd88	-0.26145577
218	0x3e328572	0.17433718
219	0x3e93170b	0.28728518
220	0x3e645f58	0.22301996
221	0xbe0bdbce	-0.13658068
222	0x3e42ad0f	0.19011329
223	0xbd7abf0f	-0.061217364
224	0x3e91bafc	0.2846297
225	0xbe0d2189	-0.13782324
226	0xbde54daf	-0.111964576
227	0x3e4a1946	0.19736204
228	0x3d9c95df	0.07645773
229	0xbe233dc9	-0.15941538
230	0xbe88df60	-0.26732922
231	0xbb40fc96	-0.0029447428
232	0xbe6f1670	-0.23348403
233	0xbdf23994	-0.118273884
234	0x3d739c12	0.059475012
235	0xbc8cd2d0	-0.017190367
236	0x3d9c6eb6	0.07638304
237	0x3e0276a7	0.12740575
238	0xbe9883df	-0.2978811
239	0xbcb8b461	-0.022546949
240	0x3e1bc69d	0.15212484
241	0xbd91223e	-0.07086609
242	0xbdbe18aa	-0.09282048
243	0x3d8f12ad	0.06985984
244	0x3c899214	0.016793288
245	0xbd478c6f	-0.048717912
246	0x3e504633	0.20339279
247	0xbe375463	-0.17903285
248	0xbe92788a	-0.2860759
249	0x3e76ef17	0.24114643
250	0x3bd5eb29	0.0065282774
251	0x3d8dfc0f	0.06932842
252	0x3d4e7d70	0.050412595
253	0xbdc8af6e	-0.097990856
254	0x3e3dce5a	0.18535748
255	0xbea24e32	-0.31700283

linear1.bias f4 [256]
0	0x3e4caac1	0.19987012
1	0x3ce376c4	0.027766593
2	0xbe82377b	-0.25432953
3	0xbcd89958	-0.026440307
4	0x3d88c4d3	0.06678166
5	0x3e585ddc	0.21129555
6	0xbdde4a83	-0.10854056
7	0x3db1d958	0.08684033
8	0xbe25555f	-0.16145848
9	0x3e8d457f	0.27592084
10	0x3e06b6be	0.13155648
11	0x3d9b66b3	0.07587948
12	0x3e2dd965	0.1697746
13	0xbb606ec9	-0.003424572
14	0x3ea0bac6	0.31392497
15	0x3d964500	0.073373795
16	0xbe8c6286	-0.27418917
17	0x3d069011	0.032852236
18	0xbe944789	-0.28960827
19	0xbe266613	-0.16249876
20	0x3e8466d0	0.2585969
21	0xbe57163b	-0.21004574
22	0xbdf7ab5f	-0.12093233
23	0xbe89f6ae	-0.26946014
24	0xbe4391ee	-0.19098637
25	0xbe414038	-0.18872154
26	0xbe4fc2c9	-0.20289148
27	0x3d6412ef	0.05568212
28	0x3db14882	0.08656408
29	0xbd978b26	-0.07399587
30	0xbe0097d1	-0.12557913
31	0xbd86791a	-0.06566067
32	0xbe045ab8	-0.12925231
33	0x3d8bb904	0.06822398
34	0xbe9189d3	-0.28425464
35	0xbe340817	-0.17581211
36	0x3e931caa	0.28732806
37	0x3cb1cf84	0.021705396
38	0x3e4b71b6	0.19867596
39	0x3e58357e	0.21114156
40	0xbd7d7985	-0.06188347
41	0xbe966b3f	-0.29378697
42	0x3e6f968c	0.23397273
43	0xbe0fc946	-0.14041623
44	0x3deb7aa1	0.11497999
45	0x3e5fd599	0.21858825
46	0xbe807553	-0.2508951
47	0xbe96b0b8	-0.294317
48	0xbd95f14f	-0.073214166
49	0xbd126951	-0.03574497
50	0xbe729b39	-0.23692025
51	0x3e515185	0.20441253
52	0xbe846d59	-0.25864676
53	0xbe729e60	-0.23693228
54	0xbe5a981d	-0.21347089
55	0x3d93ab1f	0.07210373
56	0x3ceafef8	0.028686032
57	0xbddb6937	-0.107134275
58	0x3e80c219	0.25148085
59	0xb9ddb96e	-0.0004229056
60	0xbe9a9127	-0.30188867
61	0xbd196b06	-0.03745558
62	0xbe958a03	-0.29206857
63	0xbe2d3ba7	-0.16917287
64	0x3e0a211d	0.13489194
65	0x3a8f68b7	0.0010941242
66	0xbc969443	-0.018381244
67	0x3d4a79d3	0.049432587
68	0x3e775bcf	0.24156116
69	0x3e0f8abe	0.1401777
70	0xbc6f54a4	-0.014607582
71	0xbd687392	-0.05675084
72	0x3d8ab6de	0.067731604
73	0x3d045ee4	0.032317057
74	0xbdde82a4	-0.108647615
75	0xbc367d7a	-0.011138314
76	0x3e8c1bea	0.27365047
77	0xbd2f4c20	-0.042797208
78	0x3e7969e6	0.24356803
79	0xbe0901a2	-0.13379529
80	0xbd455405	-0.04817583
81	0xbe475aa4	-0.1946817
82	0x3c361233	0.0111127375
83	0xbd751ab1	-0.059839908
84	0xbdedb9f6	-0.11607735
85	0xbdddb68b	-0.10825833
86	0x3d0e3485	0.034718055
87	0x3e41e33c	0.1893434
88	0x3e0e11c0	0.13873959
89	0x3dc70057	0.09716862
90	0x3e611c95	0.2198356
91	0xbc14b540	-0.0090764165
92	0x3d8c88b0	0.068620086
93	0xbe053393	-0.13007955
94	0xbd843925	-0.06456212
95	0xbe94f203	-0.2909089
96	0x3e1328a3	0.1437097
97	0x3e4f2ec6	0.20232686
98	0x3e73dcb2	0.23814657
99	0xbd60ea4e	-0.05491095
100	0xbb282733	-0.002565813
101	0xbc69fb33	-0.014281082
102	0x3d03bcd9	0.03216252
103	0xbe6172d5	-0.22016461
104	0xbe9386e2	-0.28813845
105	0xbe941220	-0.28920078
106	0xbc8c794f	-0.017147688
107	0x3d875548	0.06608063
108	0xbe59f23e	-0.21283814
109	0xbdeae718	-0.11469859
110	0xbd2cca88	-0.042185336
111	0xbe71c9ce	-0.23612139
112	0x3b609a03	0.0034271486
113	0xbe417e2e	-0.1889579
114	0x3d3ef62a	0.04662148
115	0xbdf85951	-0.12126411
116	0x3e0a72e2	0.13520387
117	0xbe64c188	-0.22339451
118	0xbd70baf8	-0.058772057
119	0x3e91904f	0.2843041
120	0xbe955c43	-0.29171953
121	0xbdfa400e	-0.12219249
122	0x3d4fbecd	0.05071907
123	0xbdafea3d	-0.08589599
124	0x3e26f148	0.16302979
125	0x3d8b24cc	0.06794128
126	0xbe5b42fe	-0.21412274
127	0xbe266ff7	-0.16253649
128	0x3dcb13ff	0.09915923
129	0xbe0fcf5f	-0.1404395
130	0xbdaf5a8e	-0.08562194
131	0xbdf47f85	-0.11938385
132	0xbe961195	-0.2931029
133	0x3e8be4ac	0.273229
134	0xbe385ba9	-0.18003716
135	0xbd825e6c	-0.06365666
136	0xbe6e9dd9	-0.23302402
137	0xbdfc5e38	-0.12322658
138	0x3e6785d5	0.22609647
139	0x3dc33099	0.09530754
140	0xbdc1beca	-0.09460218
141	0x3e2e9a19	0.17050971
142	0x3e147a1b	0.14499705
143	0xbe699dc8	-0.22814095
144	0xbe83ab58	-0.25716662
145	0xbe8adf72	-0.271236
146	0xbe8cea0a	-0.27522308
147	0xbe551143	-0.20807366
148	0x3e38cc02	0.18046573
149	0xbe2a85b9	-0.16652574
150	0x3e5f6636	0.21816334
151	0xbe6e368e	-0.23262998
152	0xbe816c7f	-0.25278088
153	0xbe2be563	-0.16786723
154	0x3b2bdaa8	0.0026222859
155	0xbe10437f	-0.14088248
156	0xbe1d1765	-0.15340956
157	0x3d993ef2	0.07482709
158	0x3ca22ee0	0.019797742
159	0x3e7ab4b1	0.24482991
160	0xbe4c708b	-0.19964807
161	0xbd0e0f4d	-0.03468256
162	0x3e5dfc15	0.21678193
163	0x3e256785	0.16152771
164	0x3c13df18	0.009025358
165	0x3e9580ac	0.2919973
166	0x3de5e198	0.11224669
167	0x3d19a1f8	0.03750798
168	0xbe82a529	-0.25516632
169	0xbe769c6d	-0.24083109
170	0x3d932ce9	0.071863
171	0x3e2950a4	0.16534668
172	0x3e9432b5	0.28944936
173	0x3d31f482	0.04344607
174	0xbe832bcf	-0.2561936
175	0x3d0b8b3e	0.03406834
176	0xbe5cd461	-0.21565391
177	0x3eabd294	0.33559096
178	0xbd0135a7	-0.031545307
179	0xbda9271b	-0.08259412
180	0xbe237295	-0.15961678
181	0x3e48bb69	0.19602741
182	0xbe1f0696	-0.15529856
183	0xbd48ebaf	-0.04905289
184	0xbd7f1ec2	-0.062285192
185	0x3cadaaca	0.021199603
186	0x3d80ec24	0.0629504
187	0xbe1bc5c0	-0.15212154
188	0x3e7d982b	0.24765079
189	0xbd3e2bf4	-0.046428636
190	0x3e2596c7	0.16170798
191	0xbe23ccf4	-0.15996152
192	0x3d868ff3	0.06570425
193	0x3d8d5779	0.0690145
194	0x3cb99404	0.022653587
195	0xbcef61ba	-0.029221404
196	0xbe6bb582	-0.23018458
197	0xbdb95ff3	-0.09051504
198	0xbd13ea8c	-0.036112353
199	0x3d9dfe90	0.077145696
200	0x3ca409fe	0.020024296
201	0x3aca2eb9	0.0015425301
202	0x3dd2fc92	0.1030208
203	0xbe8cd8da	-0.27509195
204	0x3dc81556	0.097696945
205	0x3d27711e	0.04087936
206	0xbc573060	-0.013134092
207	0x3e15af94	0.14617759
208	0x3e82cd6e	0.25547355
209	0xbb199237	-0.0023433098
210	0xbd4f7c81	-0.050655846
211	0xbe11e026	-0.14245662
212	0xbe426f2a	-0.18987718
213	0x3e30a80e	0.17251608
214	0x3e4f3809	0.2023622
215	0x3ddd57f4	0.10807791
216	0xbda36814	-0.07978836
217	0xbe8a736e	-0.2704119
218	0xbdb63d5e	-0.088984236
219	0x3e037421	0.12837268
220	0x3e6f2b27	0.23356305
221	0x3d83cae6	0.06435184
222	0x3e7f6715	0.24941666
223	0x3e211b9d	0.1573319
224	0x3dcf8e92	0.10134615
225	0xbe559b3a	-0.20859995
226	0x3e020298	0.12696302
227	0xbe8ea72b	-0.27861914
228	0xbdba9ed0	-0.09112322
229	0xbe06cf67	-0.13165055
230	0xbe439ea2	-0.19103482
231	0x3e632ad1	0.22184302
232	0xbd3d0a85	-0.04615261
233	0x3db1b333	0.08676758
234	0xbe3d9528	-0.1851393
235	0x3e0519c1	0.12998106
236	0xbe2c7d7a	-0.1684474
237	0xbe30e1c7	-0.17273627
238	0xbde0dc12	-0.10979475
239	0x3e6e3c7e	0.23265263
240	0x3e8c146d	0.27359334
241	0xbd1943e2	-0.037418254
242	0x3e88868c	0.2666515
243	0xbd956236	-0.07294123
244	0x3e14cb9c	0.14530796
245	0xbe596b26	-0.2123228
246	0xbe5e7103	-0.21722798
247	0x3d3e97e4	0.046531573
248	0xbe865eba	-0.26244146
249	0xbd33ed64	-0.043927565
250	0x3e23aa96	0.15983042
251	0x3e4b188b	0.19833581
252	0xbe588971	-0.2114618
253	0x3c0e9f53	0.008704978
254	0xbe237d03	-0.15965657
255	0xbd2c3cbf	-0.04205012

linear2.weight f4 [3, 256]
0	0x3c1ce407	0.00957585
1	0xbc91c533	-0.017794227
2	0x3d3dde2a	0.04635445
3	0x3d297838	0.041374415
4	0xbd7fe992	-0.06247861
5	0xbd7ec1a4	-0.06219639
6	0xbc0adda2	-0.008475693
7	0xbc3ca22a	-0.011513272
8	0x3d3d01fa	0.046144463
9	0xbd22765f	-0.03966367
10	0xbd818fdd	-0.06326268
11	0x3d134977	0.035958733
12	0xbcfd912c	-0.030953012
13	0x3d3fdd0c	0.046841666
14	0xbcb219d6	-0.021740835
15	0x3d014bad	0.03156631
16	0x3d94c4d7	0.07264107
17	0x3cadd72f	0.021220772
18	0x3cd9d4a0	0.026590645
19	0xbc9c41ba	-0.01907431
20	0x3c8c0655	0.017092863
21	0x3c32d10e	0.0109141
22	0x3db20243	0.08691838
23	0x3d4ff384	0.050769344
24	0x3b72fe20	0.003707774
25	0x3ca839a6	0.020535301
26	0x3c9f1e15	0.019423524
27	0x3ca6d20b	0.020363828
28	0xbce5f808	-0.028072372
29	0x3cbf305b	0.023338487
30	0x3c481205	0.012211327
31	0x3c655381	0.01399696
32	0xbd6ce2be	-0.057833426
33	0xbd7cd1a1	-0.061723355
34	0xbcf24c56	-0.029577415
35	0xbd39ef1e	-0.045394056
36	0x3a74648c	0.0009322844
37	0x3c36534b	0.011128257
38	0x3cf0c5f5	0.029391268
39	0xbd34e88c	-0.044167086
40	0x391d5600	0.00015004724
41	0x3d17b5d6	0.037038647
42	0xbda2a29b	-0.07941171
43	0x3d1acba7	0.037791874
44	0xbcf59698	-0.029979035
45	0x3cb3e1d0	0.021958262
46	0x3cec8266	0.028870773
47	0xbcc5d9f9	-0.024151789
48	0xbd4ac3bb	-0.04950307
49	0xbd3c841b	-0.046024423
50	0xbb8eb6f8	-0.0043553077
51	0xbd31d5e0	-0.043416858
52	0x3d84e1a0	0.06488347
53	0xbcf26368	-0.029588416
54	0x3d8d1b83	0.06890013
55	0xba8563c9	-0.0010176833
56	0xbc2b1081	-0.010440947
57	0xbd6cfb6b	-0.05785696
58	0xbab2df24	-0.0013646823
59	0xbc4fe29d	-0.012688306
60	0x3bd52034	0.006504083
61	0x3d0e0e6c	0.034681723
62	0x3cad04dd	0.021120483
63	0x3d5be127	0.05368152
64	0x3d2baebd	0.04191469
65	0xbd7e19ad	-0.062036205
66	0xbc93e265	-0.01805229
67	0xbd5e3995	-0.054254133
68	0xbc49e6f2	-0.012323128
69	0x3c96c651	0.018405112
70	0x3d348aa2	0.044077523
71	0xbd39e72d	-0.045386482
72	0x3d2eedf1	0.042707387
73	0xbd0e5fc0	-0.034759283
74	0xbd6210b5	-0.055191714
75	0x3d9122d5	0.07086722
76	0x3b9ad876	0.004725511
77	0xbce746b7	-0.028231962
78	0x3a955cca	0.0011395451
79	0x3ce23906	0.027615082
80	0xbc1e27e9	-0.00965307
81	0x3cc9a6a0	0.024615586
82	0x3c81b71b	0.015834382
83	0x3baeda8a	0.0053361105
84	0x3ca222b6	0.019791942
85	0xbd1f3514	-0.03886898
86	0xbc41bdcb	-0.011825035
87	0x3b8c9e33	0.0042913198
88	0x3d2c479f	0.04206049
89	0xbd615c08	-0.05501941
90	0x3c6a9aaa	0.014319101
91	0x3d2fb24a	0.04289464
92	0xbd95e6d3	-0.07319417
93	0x3cb15588	0.02164723
94	0x3af0d8ff	0.0018375217
95	0xbcdb71af	-0.026787607
96	0x3de51d63	0.11187246
97	0x3cdce889	0.02696635
98	0xbd1b3673	-0.037893724
99	0xbb68298e	-0.003542516
100	0x3b054647	0.0020336078
101	0x3d85bdb3	0.06530323
102	0xbd88e59e	-0.06684421
103	0xbd8e5983	-0.06950667
104	0x3d40e8d2	0.047097035
105	0xbc40ec5f	-0.011775105
106	0x3c5da73d	0.013528642
107	0xbd584509	-0.052800212
108	0x3c3b3481	0.011426092
109	0x3d1d2b80	0.038371563
110	0xbd2cabde	-0.042156093
111	0xbc818aed	-0.015813315
112	0x3d21989e	0.039452188
113	0xbc0b2d98	-0.008494757
114	0xbd7e08e2	-0.06202019
115	0x3d750038	0.05981466
116	0x3c2b1a41	0.010443271
117	0x3cdb001c	0.02673345
118	0x3b74e5a2	0.0037368317
119	0xbd8dedc3	-0.06930115
120	0x3ce42b51	0.027852686
121	0xbc1900d5	-0.009338577
122	0x3c43df4e	0.011955095
123	0x3cc72072	0.024307463
124	0x3ced6a56	0.028981369
125	0x3d2f943b	0.042865973
126	0xbc0c4f09	-0.008563765
127	0xbd80d0ac	-0.06289801
128	0x3c4c8edf	0.012485235
129	0x3ba396a1	0.0049923216
130	0x3cf7cff4	0.030250527
131	0x3a8441c4	0.00100904
132	0x3d59af4a	0.053145684
133	0x3ce8a311	0.028398069
134	0xbc955984	-0.018231161
135	0x3ba0dafe	0.0049089184
136	0xbd49659d	-0.04916917
137	0x3c6ac494	0.014329094
138	0xbd13732c	-0.03599851
139	0x3b3ee4c6	0.0029128059
140	0x3c93d770	0.018047065
141	0xbd5746e1	-0.05255783
142	0x3c2231ff	0.009899615
143	0x3cc13514	0.02358488
144	0x3d649765	0.055808444
145	0x3cf88a37	0.030339343
146	0x3d64e137	0.055878844
147	0xbca6c179	-0.020355927
148	0xbd0e554e	-0.03474932
149	0x3c7e8382	0.015534284
150	0x3d8010bb	0.06253191
151	0x3d666324	0.05624689
152	0x3c929241	0.017892005
153	0x3d9e6b85	0.077353515
154	0xbcfd3f66	-0.03091402
155	0x3da6ce02	0.081447616
156	0x3cb3ffe7	0.02197261
157	0xbc2900d4	-0.010315139
158	0x3c231450	0.009953573
159	0x3d1264ea	0.03574077
160	0xbd35a084	-0.044342533
161	0x3c6d470b	0.01448227
162	0xbd86409f	-0.06555294
163	0xbd254152	-0.040345497
164	0xbc27b9a7	-0.010237134
165	0x3c9f2511	0.019426854
166	0x3ce8f7c4	0.028438456
167	0xbd8170ae	-0.0632032
168	0xbcea41fb	-0.028595915
169	0xbcc05c8d	-0.023481632
170	0x3c7f0f47	0.015567607
171	0xbd919517	-0.07108515
172	0x3d08743a	0.033313967
173	0xbd5ab4b2	-0.05339498
174	0xbcca0cac	-0.024664246
175	0x3d33788d	0.043816138
176	0x3c7bbfc1	0.015365542
177	0xbcf87af5	-0.030332068
178	0xbc817980	-0.015805006
179	0x3c1b455e	0.009476988
180	0xbcbe56d5	-0.023234764
181	0xbbef82e5	-0.007309305
182	0xbd970e1a	-0.073757365
183	0xba3fc285	-0.00073150574
184	0xbbe2aa13	-0.006917247
185	0x3ce21882	0.027599577
186	0xbd42b0c7	-0.04753187
187	0xbd2b243f	-0.041782614
188	0xbc97c152	-0.0185248
189	0xbb097c41	-0.0020978602
190	0x3cd6f890	0.02624157
191	0x3d4a0893	0.049324583
192	0xbd5d72c0	-0.054064512
193	0x3cb04e4a	0.021521706
194	0x3d36441b	0.044498544
195	0x3dbcb308	0.09213835
196	0x3ce9c8d0	0.028538138
197	0x3c5f5f6c	0.01363359
198	0xbcc9da1f	-0.024640141
199	0xbd7b0622	-0.061285146
200	0xbd364253	-0.044496845
201	0x3ce84cd3	0.028356945
202	0x3d53d0a0	0.051712632
203	0x3cfe2094	0.031021394
204	0xbd8ec57a	-0.069712594
205	0x3c96048b	0.018312713
206	0xbce43c04	-0.027860649
207	0xbd635b4b	-0.055506986
208	0x3c931734	0.0179554
209	0xbb4bb3a1	-0.003108241
210	0xbc448751	-0.011995153
211	0x3d46b238	0.048509806
212	0xbccaa721	-0.024737896
213	0xbbb6511b	-0.0055638677
214	0xbd581fc4	-0.05276467
215	0x3cf260b9	0.029587137
216	0xbdb05bae	-0.086112365
217	0x3c7c9478	0.015416257
218	0x3caec6e8	0.02133508
219	0x3c9821cb	0.018570801
220	0x3cbe2239	0.023209678
221	0xbc5957e2	-0.013265582
222	0x3cb2cf56	0.021827381
223	0xbb74c152	-0.0037346673
224	0x3c66b80b	0.014081965
225	0x3d92e361	0.07172275
226	0xbd85070d	-0.064954855
227	0x3c2f481b	0.010698344
228	0xbca3019a	-0.019898225
229	0xbd4c4102	-0.049866684
230	0xbd2cbaec	-0.04217045
231	0x3ba842bf	0.00513491
232	0xbcbf29a1	-0.02333528
233	0x3c94c79a	0.018161584
234	0x3d942348	0.07233292
235	0x3d578a9e	0.05262243
236	0x3ca403cd	0.020021344
237	0xbabec516	-0.0014554586
238	0xbb9314d8	-0.0044885688
239	0xbc23df65	-0.010001992
240	0x3cfdcb00	0.030980587
241	0x3d20b562	0.03923548
242	0xbbbbdac4	-0.005732866
243	0x3d382e76	0.044966184
244	0xbcc8d5b1	-0.024515959
245	0x3d7d545b	0.061848026
246	0xbd11312c	-0.035447285
247	0xbd6311e8	-0.055437
248	0x3d7d9018	0.061904997
249	0x3ca352d0	0.019936949
250	0x3b0d9f09	0.0021609685
251	0xbd042fca	-0.032272138
252	0x3c645c80	0.013938069
253	0xbd56f22c	-0.052477047
254	0x3d394dc7	0.04524019
255	0x3c7520a1	0.014961393

linear2.bias f4 [3]
0	0xbd90f2e8	-0.07077581
1	0xbd4fa586	-0.050694965
2	0xbb62ce13	-0.0034607693
